…
  keras.layers.Conv2D(64, (5,5), activation=tf.nn.relu),\n    keras.layers.Conv2D(64, (5,5), activation=tf.nn.relu),\n    keras.layers.MaxPooling2D(2, 2),\n    keras.layers.Flatten(),\n    keras.layers.Dense(128, activation=tf.nn.relu),\n    keras.layers.Dense(num_classes, activation=tf.nn.softmax)\n])\nmodel.summary()\n</code></pre> <pre><code>Model: \"sequential\"\n_________________________________________________________________\nLayer (type)                 Output Shape              Param #   \n=================================================================\nconv2d (Conv2D)              (None, 146, 146, 64)      4864      \n_________________________________________________________________\nconv2d_1 (Conv2D)            (None, 142, 142, 64)      102464    \n_________________________________________________________________\nmax_pooling2d (MaxPooling2D) (None, 71, 71, 64)        0         \n_________________________________________________________________\nconv2d_2 (Conv2D)            (None, 67, 67, 64)        102464    \n_________________________________________________________________\nconv2d_3 (Conv2D)            (None, 63, 63, 64)        102464    \n_________________________________________________________________\nmax_pooling2d_1 (MaxPooling2 (None, 31, 31, 64)        0         \n_________________________________________________________________\nconv2d_4 (Conv2D)            (None, 27, 27, 64)        102464    \n_________________________________________________________________\nconv2d_5 (Conv2D)            (None, 23, 23, 64)        102464    \n_________________________________________________________________\nmax_pooling2d_2 (MaxPooling2 (None, 11, 11, 64)        0         \n_________________________________________________________________\nflatten (Flatten)            (None, 7744)              0         \n_________________________________________________________________\ndense (Dense)                (None, 128)               991360    \n_________________________________________________________________\ndense_1 (Dense)              (None, 5)                 645       \n=================================================================\nTotal params: 1,509,189\nTrainable params: 1,509,189\nNon-trainable params: 0\n_________________________________________________________________\n</code></pre></p>"},{"location":"machine-learning/tensorflow/02-image-classification/reseaux-convolutifs/#parametrage-de-lapprentissage","title":"Param\u00e9trage de l'apprentiss
…
